Tugas Kecerdasan Buatan/ModelAgen.npy (npy, 96128 bytes, 1 tensors)

array f8 [2000, 6]
000000 00 00 00 00 00 00 00 00 00 00 00 00 00 00 00 00
       0.0 0.0
000010 00 00 00 00 00 00 00 00 00 00 00 00 00 00 00 00
       0.0 0.0
000020 00 00 00 00 00 00 00 00 00 00 00 00 00 00 00 00
       0.0 0.0
000030 4c a2 a8 3b fc ff 03 c0 18 b9 c3 b8 f9 ff 03 c0
       -2.4999928150976185 -2.49998802516269
000040 18 b9 c3 b8 f9 ff 03 c0 18 b9 c3 b8 f9 ff 03 c0
       -2.49998802516269 -2.49998802516269
000050 6c 34 46 89 f5 ff 03 c0 4a ee 30 6e fe ff 26 c0
       -2.4999800419378087 -11.499988025162697
000060 04 a8 aa 05 1d 6f 03 c0 4e 6d 1c b4 85 0e 03 c0
       -2.429254574080007 -2.3820909568000053
000070 4e 6d 1c b4 85 0e 03 c0 4e 6d 1c b4 85 0e 03 c0
       -2.3820909568000053 -2.3820909568000053
000080 22 b6 84 81 89 6d 02 c0 5a 1b 07 6d a1 c3 26 c0
       -2.303484928000004 -11.382090956800017
000090 42 c0 59 35 8a fe 03 c0 b2 95 95 03 91 fd 03 c0
       -2.499287049104198 -2.4988117485069887
0000a0 b2 95 95 03 91 fd 03 c0 b2 95 95 03 91 fd 03 c0
       -2.4988117485069887 -2.4988117485069887
0000b0 70 f9 a3 b0 f1 fb 03 c0 6e 65 e5 40 64 ff 26 c0
       -2.498019580844975 -11.498811748506991
0000c0 60 4c ff ff ff ff 03 c0 e7 93 ff ff ff ff 03 c0
       -2.499999999979579 -2.4999999999877107
0000d0 23 95 ff ff ff ff 03 c0 95 98 ff ff ff ff 03 c0
       -2.499999999987851 -2.4999999999882427
0000e0 8a 7b fb 62 2b ca 26 c0 83 ac 75 52 82 fa 26 c0
       -11.394862263868863 -11.48927552877854
0000f0 00 00 00 00 00 00 00 00 00 00 00 00 00 00 00 00
       0.0 0.0
000100 00 00 00 00 00 00 00 00 00 00 00 00 00 00 00 00
       0.0 0.0
000110 00 00 00 00 00 00 00 00 00 00 00 00 00 00 00 00
       0.0 0.0
000120 3a c0 fc ff ff ff 03 c0 bc 18 fe ff ff ff 03 c0
       -2.4999999999054383 -2.4999999999446043
000130 ef 1c fe ff ff ff 03 c0 53 11 fe ff ff ff 03 c0
       -2.4999999999450817 -2.499999999943762
000140 e0 25 15 2c be dc 26 c0 21 25 56 85 39 dc 26 c0
       -11.431138398725068 -11.43012634922576
000150 0c 1b 48 f6 ff ff 03 c0 c2 4e 1a fa ff ff 03 c0
       -2.4999999275927447 -2.4999999560621697
000160 57 f9 15 fa ff ff 03 c0 03 4b 06 fa ff ff 03 c0
       -2.4999999559360435 -2.4999999554796672
000170 1a 8e 51 11 f1 c9 26 c0 17 30 ce 28 49 74 26 c0
       -11.394417325215773 -11.227120661897102
000180 70 f9 a3 b0 f1 fb 03 c0 7f 08 b1 00 73 fd 03 c0
       -2.498019580844975 -2.4987545064951173
000190 9d f3 8d 5b 93 fd 03 c0 81 90 49 48 80 fd 03 c0
       -2.4988162186331935 -2.498779835457811
0001a0 61 75 f4 a1 8c 94 25 c0 7f 17 8c 32 fd 99 25 c0
       -10.790135441866996 -10.800759868241355
0001b0 9c 78 05 83 ff ff 03 c0 43 41 cb b2 ff ff 03 c0
       -2.4999990688366562 -2.4999994247702104
0001c0 3d 7f a9 b5 ff ff 03 c0 b6 e9 c2 b2 ff ff 03 c0
       -2.499999446139468 -2.4999994245274264
0001d0 4f 11 b1 1a 71 81 26 c0 0b 23 6c ab 64 d8 26 c0
       -11.252816042055796 -11.422643048239044
0001e0 00 00 00 00 00 00 00 00 00 00 00 00 00 00 00 00
       0.0 0.0
0001f0 00 00 00 00 00 00 00 00 00 00 00 00 00 00 00 00
       0.0 0.0
000200 00 00 00 00 00 00 00 00 00 00 00 00 00 00 00 00
       0.0 0.0
000210 0a e9 7d 8e cf ff 03 c0 29 fe 23 01 e3 ff 03 c0
       -2.4999076015639092 -2.4999446953877578
000220 09 87 ec 7b e2 ff 03 c0 c3 32 0a 86 e2 ff 03 c0
       -2.4999437028462848 -2.499943778215625
000230 90 71 67 e2 26 98 25 c0 a9 7d e1 7f 0e 97 24 c0
       -10.797171664359468 -10.295032497668972
000240 92 2e 01 e5 ff ff 03 c0 d4 db 62 ef ff ff 03 c0
       -2.499999798868722 -2.499999876217297
000250 57 3e 27 ef ff ff 03 c0 c9 4b 6a ef ff ff 03 c0
       -2.4999998744822665 -2.4999998764337517
000260 63 25 b6 91 0c 55 26 c0 52 e5 94 dd 9b 9b 26 c0
       -11.166111520275711 -11.303923534799342
000270 4c a2 a8 3b fc ff 03 c0 03 39 f8 ab fd ff 03 c0
       -2.4999928150976185 -2.499995559227615
000280 e8 07 b0 94 fd ff 03 c0 7a cd d8 cb fd ff 03 c0
       -2.499995385763203 -2.49999579673175
000290 6a 60 72 ae 67 ae 26 c0 2f d4 8c 88 9a b8 25 c0
       -11.340634776556005 -10.860553996268292
0002a0 9c 78 05 83 ff ff 03 c0 c1 db b7 b4 ff ff 03 c0
       -2.4999990688366562 -2.4999994391068587
0002b0 dd 89 10 b4 ff ff 03 c0 ab 00 82 b2 ff ff 03 c0
       -2.499999434237209 -2.4999994226382873
0002c0 b0 d3 09 16 a7 ad 26 c0 97 20 24 f8 ad cd 26 c0
       -11.339165390681814 -11.40171790543563
0002d0 00 00 00 00 00 00 00 00 00 00 00 00 00 00 00 00
       0.0 0.0
0002e0 00 00 00 00 00 00 00 00 00 00 00 00 00 00 00 00
       0.0 0.0
0002f0 00 00 00 00 00 00 00 00 00 00 00 00 00 00 00 00
       0.0 0.0
000300 59 66 66 66 66 66 22 40 f8 ff ff ff ff ff 30 40
       9.199999999999976 16.99999999999997
000310 f8 ff ff ff ff ff 30 40 f8 ff ff ff ff ff 30 40
       16.99999999999997 16.99999999999997
000320 f2 ff ff ff ff ff 1f 40 fd ff ff ff ff ff 3d 40
       7.999999999999988 29.99999999999999
000330 02 02 75 8f ee ff 03 c0 6c 34 46 89 f5 ff 03 c0
       -2.499966736563011 -2.4999800419378087
000340 6c 34 46 89 f5 ff 03 c0 6c 34 46 89 f5 ff 03 c0
       -2.4999800419378087 -2.4999800419378087
000350 24 8d 51 62 fd ff 26 c0 18 b9 c3 b8 f9 ff 03 c0
       -11.499980041937825 -2.49998802516269
000360 35 da 87 82 3a 61 01 c0 22 b6 84 81 89 6d 02 c0
       -2.172474880000005 -2.303484928000004
000370 22 b6 84 81 89 6d 02 c0 22 b6 84 81 89 6d 02 c0
       -2.303484928000004 -2.303484928000004
000380 8a 2d 61 60 62 9b 26 c0 4e 6d 1c b4 85 0e 03 c0
       -11.303484928000007 -2.3820909568000053
000390 02 f5 bb 7b 3d f9 03 c0 70 f9 a3 b0 f1 fb 03 c0
       -2.4966993014082854 -2.498019580844975
0003a0 70 f9 a3 b0 f1 fb 03 c0 70 f9 a3 b0 f1 fb 03 c0
       -2.498019580844975 -2.498019580844975
0003b0 60 fe 28 6c fc fe 26 c0 b2 95 95 03 91 fd 03 c0
       -11.498019580844982 -2.4988117485069887
0003c0 00 00 00 00 00 00 00 00 00 00 00 00 00 00 00 00
       0.0 0.0
0003d0 00 00 00 00 00 00 00 00 00 00 00 00 00 00 00 00
       0.0 0.0
0003e0 00 00 00 00 00 00 00 00 00 00 00 00 00 00 00 00
       0.0 0.0
0003f0 b0 5b 80 fc ff ff 03 c0 f4 78 d7 fd ff ff 03 c0
       -2.4999999739333916 -2.4999999839193325
000400 ea e3 df fd ff ff 03 c0 fd 13 df fd ff ff 03 c0
       -2.4999999841643232 -2.499999984140685
000410 ba c0 fe f9 d8 a2 26 c0 d8 0b a1 01 75 bd 26 c0
       -11.318061649654158 -11.370033312710731
000420 1e c0 5d 6f 79 ff 03 c0 07 c4 f2 44 ad ff 03 c0
       -2.499743337677514 -2.49984220376837
000430 62 d1 e3 a1 ad ff 03 c0 6e b0 fb ec aa ff 03 c0
       -2.4998428962373263 -2.499837733679718
000440 96 96 76 e2 69 15 25 c0 7e 1e 51 e4 78 8d 26 c0
       -10.541823460556127 -11.276312956716762
000450 f2 4e d6 a4 fe ff 03 c0 51 8d 6a 29 ff ff 03 c0
       -2.499997413435147 -2.4999984012262435
000460 21 0b 50 30 ff ff 03 c0 ad 59 71 30 ff ff 03 c0
       -2.4999984526088075 -2.4999984535781636
000470 0e 1e 82 48 fe ad 26 c0 c0 0a 7a fe e9 c9 26 c0
       -11.339830652125809 -11.394363357923226
000480 3a c0 fc ff ff ff 03 c0 06 09 fe ff ff ff 03 c0
       -2.4999999999054383 -2.499999999942818
000490 ea f4 fd ff ff ff 03 c0 0b f6 fd ff ff ff 03 c0
       -2.499999999940532 -2.4999999999406604
0004a0 2f 66 a3 88 5d ee 26 c0 4b c2 74 0d 53 d4 26 c0
       -11.465557355829416 -11.414696140768816
0004b0 00 00 00 00 00 00 00 00 00 00 00 00 00 00 00 00
       0.0 0.0
0004c0 00 00 00 00 00 00 00 00 00 00 00 00 00 00 00 00
       0.0 0.0
0004d0 00 00 00 00 00 00 00 00 00 00 00 00 00 00 00 00
       0.0 0.0
0004e0 f8 f4 f0 ff ff ff 03 c0 40 75 f6 ff ff ff 03 c0
       -2.4999999995621884 -2.4999999997222915
0004f0 81 e1 f6 ff ff ff 03 c0 37 e5 f6 ff ff ff 03 c0
       -2.4999999997345985 -2.4999999997350204
000500 80 4e c3 2c 25 e0 26 c0 49 bc 3c 1c fb f0 26 c0
       -11.437783621636527 -11.470665819562912
000510 3e f8 01 d3 ff ff 03 c0 fd 85 47 e4 ff ff 03 c0
       -2.499999664781199 -2.499999793465348
000520 37 5b 80 e3 ff ff 03 c0 51 54 3b e3 ff ff 03 c0
       -2.499999787668823 -2.4999997856598744
000530 f2 49 c4 89 17 e0 26 c0 f9 bc de 27 f7 55 26 c0
       -11.437679581843415 -11.167901273669928
000540 b2 95 95 03 91 fd 03 c0 81 82 5e 48 97 fe 03 c0
       -2.4988117485069887 -2.4993119863359543
000550 7e fe 1f b4 71 fe 03 c0 e8 2b a9 4c 87 fe 03 c0
       -2.4992403099311664 -2.499281500733094
000560 36 80 ec 63 32 10 25 c0 92 ce d9 1e 10 dc 24 c0
       -10.531634447688798 -10.429810489738234
000570 60 48 03 b5 ff ff 03 c0 53 81 5e d1 ff ff 03 c0
       -2.499999441301995 -2.4999996525731745
000580 e2 0c 80 d3 ff ff 03 c0 64 a8 f9 d1 ff ff 03 c0
       -2.499999668450628 -2.4999996570887095
000590 69 68 35 da 17 90 26 c0 4f 68 05 85 4c 82 26 c0
       -11.281431979197992 -11.254490048322763
0005a0 00 00 00 00 00 00 00 00 00 00 00 00 00 00 00 00
       0.0 0.0
0005b0 00 00 00 00 00 00 00 00 00 00 00 00 00 00 00 00
       0.0 0.0
0005c0 00 00 00 00 00 00 00 00 00 00 00 00 00 00 00 00
       0.0 0.0
0005d0 aa 58 18 ef e2 ff 03 c0 12 e6 df db ed ff 03 c0
       -2.49994456093835 -2.4999653985694374
0005e0 c7 95 c8 48 ee ff 03 c0 81 ce 7e 32 ee ff 03 c0
       -2.499966210004206 -2.4999660439441986
0005f0 1d 2f 96 04 24 99 25 c0 14 c0 64 77 38 e3 24 c0
       -10.799102919896137 -10.443790179298993
000600 f2 4e d6 a4 fe ff 03 c0 bc e9 23 29 ff ff 03 c0
       -2.499997413435147 -2.4999983991703782
000610 15 d2 2c 2c ff ff 03 c0 b7 bc 2d 36 ff ff 03 c0
       -2.4999984217813656 -2.499998496313846
000620 9e 23 73 d9 d2 76 26 c0 62 51 46 49 0d 76 26 c0
       -11.23207740335948 -11.230570115884522
000630 0a e9 7d 8e cf ff 03 c0 39 66 47 4f e3 ff 03 c0
       -2.4999076015639092 -2.499945277563509
000640 d9 b2 dd e0 e1 ff 03 c0 ea 92 07 c5 e2 ff 03 c0
       -2.4999425475747157 -2.4999442475258222
000650 3a f6 87 ec 89 e3 24 c0 51 f1 68 01 f9 99 25 c0
       -10.444411651226904 -10.800727886257535
000660 18 b9 c3 b8 f9 ff 03 c0 5b 79 1c 40 fc ff 03 c0
       -2.49998802516269 -2.4999928482713307
000670 70 df 31 3a fc ff 03 c0 cb 5d 12 44 fc ff 03 c0
       -2.499992804190633 -2.4999928777794813
000680 b1 cd e3 48 51 55 26 c0 de d4 b1 e1 05 13 26 c0
       -11.166635778244059 -11.037154248197506
000690 00 00 00 00 00 00 00 00 00 00 00 00 00 00 00 00
       0.0 0.0
0006a0 00 00 00 00 00 00 00 00 00 00 00 00 00 00 00 00
       0.0 0.0
0006b0 00 00 00 00 00 00 00 00 00 00 00 00 00 00 00 00
       0.0 0.0
0006c0 ad d3 d9 d8 d8 6c 03 c0 6c 13 d5 40 a0 71 03 c0
       -2.4281479779696924 -2.430481440069732
0006d0 ea e6 7a 4c 4a 6c 03 c0 0d e4 57 2f e5 66 03 c0
       -2.4278760886198727 -2.4252418230721617
0006e0 c8 fc ce 9f 55 bc 1a c0 f9 95 f9 1c 0f 5b 19 c0
       -6.683920380600462 -6.338924839719305
0006f0 69 c1 57 74 11 fe 03 c0 f7 c4 04 76 04 fe 03 c0
       -2.4990567292481285 -2.4990319462018493
000700 b9 81 1d bf 02 fe 03 c0 ee 0a 18 c8 0c fe 03 c0
       -2.4990286761169185 -2.4990478164994476
000710 8e 65 74 00 3a 17 24 c0 26 7c 08 d3 05 07 22 c0
       -10.045364393433172 -9.013716311250459
000720 57 c5 2c 5f 9a 6b 01 c0 fb c3 32 d9 0d 65 01 c0
       -2.1775405345476133 -2.174342820035688
000730 8d 87 60 ba 3b 65 01 c0 20 28 bc 17 fc 66 01 c0
       -2.174430328436705 -2.1752855161949043
000740 14 31 35 f4 f9 0c 14 c0 47 a4 ec 17 65 e6 06 c0
       -5.012672248598637 -2.862497507962448
000750 ad cf 51 5d af 53 03 c0 97 43 4a d3 d5 51 03 c0
       -2.415861825045758 -2.4149586207426625
000760 f1 b2 b0 e4 1a 53 03 c0 50 3a 7a b0 13 53 03 c0
       -2.4155786386894467 -2.415564898233505
000770 a4 56 de 08 1e a7 14 c0 eb 1d 40 08 2c 9a 1e c0
       -5.163200510569059 -7.65055859462107
000780 00 00 00 00 00 00 00 00 00 00 00 00 00 00 00 00
       0.0 0.0
000790 00 00 00 00 00 00 00 00 00 00 00 00 00 00 00 00
       0.0 0.0
0007a0 00 00 00 00 00 00 00 00 00 00 00 00 00 00 00 00
       0.0 0.0
0007b0 70 9d e6 fd ff ff 03 c0 e7 9a bd fe ff ff 03 c0
       -2.499999984360038 -2.499999990617073
0007c0 ea 96 3e ff ff ff 03 c0 d8 a6 bd fe ff ff 03 c0
       -2.499999994371014 -2.4999999906184307
0007d0 07 14 aa d7 ff ff 26 c0 1b 5b 26 ba ff ff 26 c0
       -11.499998797904494 -11.499997918302645
0007e0 b4 d9 d1 42 af ff 03 c0 91 45 24 8f cf ff 03 c0
       -2.499846002606512 -2.4999076064056642
0007f0 fe 80 56 f0 e2 ff 03 c0 b5 32 07 91 cf ff 03 c0
       -2.499944570197953 -2.4999076204606703
